week-07/iris_model.pth (torch, 2683 bytes, 4 tensors)

fc1.weight f4 [10, 4]
000000 23 8d c3 3d a0 d6 78 3e 41 59 80 3f 77 4a ab 3d
       0.09548404 0.24300623 1.0027238 0.083638124
000010 2c 8b 92 be 78 9b 4f be 90 ff 74 3d 92 8d ec be
       -0.28621805 -0.2027415 0.059814036 -0.4620176
000020 08 35 d2 be f4 e0 73 be 90 ad 38 be 74 d8 2e 3e
       -0.41056085 -0.23816282 -0.18034959 0.17074758
000030 1a 10 cf be f8 aa 72 be b8 e4 e0 3d 4e 69 a6 3e
       -0.40441972 -0.23698032 0.10981125 0.32502216
000040 d1 97 c3 3e 89 7f 67 be 97 44 53 3d 98 72 b7 bd
       0.38201764 -0.22607245 0.051579084 -0.08957404
000050 74 48 2a 3f 77 44 73 3f 9c 6b 84 bf 2d fd 1c bf
       0.66516805 0.95026344 -1.034534 -0.61323816
000060 fe 74 e0 be f0 78 77 be 90 5c d8 be 70 8f 4b be
       -0.43839258 -0.24167228 -0.4225812 -0.19878936
000070 29 61 b8 3d 48 86 a5 3e 7d dd 04 3e 67 ea c9 be
       0.09002907 0.3232901 0.12975116 -0.39436647
000080 7c 02 7c be e0 59 fb be 90 ea 55 bd da 0c a3 be
       -0.24610323 -0.49092007 -0.05222565 -0.31845742
000090 d0 9a 7b be c4 c0 39 3e 80 4c 96 3b a0 2c 03 bd
       -0.24570775 0.1813994 0.004586756 -0.03202498

fc1.bias f4 [10]
000000 00 62 b4 be c4 7d cf 3e 42 f7 f7 be 1e 35 89 be
       -0.35231018 0.4052564 -0.4843083 -0.26798338
000010 0d c9 7f 3d 23 09 27 3e e2 4b 96 be c7 a8 50 3e
       0.062447596 0.16312079 -0.2935477 0.20376883
000020 8c 7b 67 3e 18 02 5a 3e
       0.22605723 0.21289861

fc2.weight f4 [3, 10]
000000 93 d5 e1 be 5a 9d 40 3e c1 d7 02 be f6 47 b8 bd
       -0.44108257 0.18810025 -0.12777616 -0.089981005
000010 d1 b3 47 bc 5c d2 a9 3f ac 9b d6 bd 76 27 38 3e
       -0.012188868 1.3267322 -0.10478911 0.17983803
000020 ea bf 40 be 00 f1 ec bc 45 ca b5 3e 72 d7 25 be
       -0.1882321 -0.028923512 0.35505882 -0.16195467
000030 c8 2e 2f 3e b6 50 a6 bd f2 f6 8d 3e 7e 43 8c 3e
       0.1710769 -0.08120863 0.27727467 0.27395242
000040 62 05 9f bd 59 a0 a2 3e 8a d5 6e 3e 38 d1 40 be
       -0.077646986 0.3176296 0.23323646 -0.1882981
000050 64 45 37 3f f7 4f 89 3e 91 08 3c be bd 46 86 be
       0.71590257 0.2681882 -0.18362643 -0.26225844
000060 64 3f 9a 3d 51 06 70 bf ae da 4b 3e a5 2b 4e bd
       0.07531622 -0.9375964 0.19907638 -0.05033459
000070 3e 7d 5f 3e f4 c5 b4 3d
       0.2182512 0.08826819

fc2.bias f4 [3]
000000 2b e6 70 3d a5 d7 4a be 20 1d 5c 3c
       0.058813255 -0.19808824 0.013434678
